weight_LR1_i5000.npy (npy, 856 bytes, 1 tensors)

array f8 [91, 1]
0.008139423878275305 -0.06395444475346004 0.023979670176227628 -0.04674550059465747 -0.09027896354821899 0.16736370901224137 -0.014070273261513666 0.0038580276196230126
-0.012979870576996202 0.013773182311818715 0.04061580463109592 0.0018229677460091373 -0.0023654844007099996 -0.010133645232997382 0.005854593566789474 0.02094339380703779
0.014543301283093023 -0.022749975552559733 0.003306946194723163 0.013119963447187992 0.0008797890173521903 0.0023751436911621467 -0.013447111228329004 0.011874655277470787
0.002760222889425747 -0.018438723753966515 -0.03199132540504045 0.009127088297995146 -0.02585752564212262 -0.06545160245925782 0.056108028188437985 0.0034644492546062706
0.009188095095606011 -0.016633125162830897 0.04189214182139647 0.061017454357554346 -0.0272592324947979 -0.025084233997901578 -0.026731882244240886 -0.005285091709063052
0.10544202437246612 0.028519640603956432 -0.03995437192396024 0.03254746009301148 0.015915186787771422 0.06227388285287954 -0.0617412387664582 0.3628066738816429
-0.438647719812568 0.03427665265359492 0.9036466356284616 -0.0063435144960516995 0.006434974391464278 0.0017273845284857218 -0.004676002182593749 -0.01090885101315433
-0.061283483690339986 0.05198530915013369 -0.10850500032000505 0.03444648633162886 0.04787563461250176 -0.005619786707061556 0.005109057882222088 -0.003807817436400792
0.014398518723967791 0.015374794201661764 0.008192362026345028 0.011417795126698136 0.00624433883524371 -0.025492040870631637 -0.008032395514637825 0.009246192239800279
0.004418643503721281 -0.02365535024592644 0.005575095805185834 0.0040486696660145365 -0.004064417433890293 0.003459138763341327 0.001969490480554906 -0.010406139661154123
-0.0011026320788335786 -0.0067585005389644865 0.0018438950510150584 0.002562195589482796 -0.009326305981811072 -0.007514759617836075 -0.0064225890318199376 0.013736963338939511
-0.00851251050918699 -0.014739359862455741 0.012471592142852948
00000000: 977d ecfa 66ab 803f 1a63 a688 515f b0bf
00000010: 89fb b36c 208e 983f 5612 94b8 06ef a7bf
00000020: 1ad5 f4ab 851c b7bf d356 5f8c 2c6c c53f
00000030: 0029 081c e0d0 8cbf 90ce 81ce de9a 6f3f
00000040: ae7a 13bd 3095 8abf 5696 ba3c 1d35 8c3f
00000050: 8ebc 2e41 98cb a43f bc0c 73b6 14de 5d3f
00000060: 8de8 7cc4 c760 63bf e87f ebd6 f2c0 84bf
00000070: c766 697e fcfa 773f 3cb8 df5d 2f72 953f
00000080: 4c15 18db e0c8 8d3f faa2 ee03 c54b 97bf
00000090: 08e3 3038 2b17 6b3f 2f6f 71af a3de 8a3f
000000a0: d5bf 4887 34d4 4c3f 754a 428f 0975 633f
000000b0: 0f5c 9cb7 288a 8bbf 4449 8b40 bd51 883f
000000c0: 9eaa 4561 9b9c 663f c757 03ce 99e1 92bf
000000d0: 8e9d bdc0 2a61 a0bf 4712 fb0d 39b1 823f
000000e0: 9f1e f42b 657a 9abf b686 08ac 6fc1 b0bf
000000f0: d38a 3904 31ba ac3f 96f1 e807 7a61 6c3f
00000100: f5d7 953f 35d1 823f 0325 6b22 4608 91bf
00000110: 2422 2a06 e372 a53f 40d8 e605 ae3d af3f
00000120: 621e 5120 d8e9 9bbf f82f aa72 aeaf 99bf
00000130: cf86 ff3f 9a5f 9bbf 42a3 bf00 d2a5 75bf
00000140: 53c4 4d9e 3ffe ba3f aa2b c0ae 4034 9d3f
00000150: 31c3 7d41 e674 a4bf d3ae 5589 0faa a03f
00000160: ce86 0d1b 124c 903f c700 7fc4 5ce2 af3f
00000170: bf07 a232 8c9c afbf 80e6 c57b 3938 d73f
00000180: 3cd6 c3e2 cd12 dcbf c0bb 539c b58c a13f
00000190: fc44 6559 acea ec3f c6fd d534 a8fb 79bf
000001a0: 35b1 fd48 8f5b 7a3f 6d77 ad03 2d4d 5c3f
000001b0: d648 34c7 2427 73bf 0d1d b532 6157 86bf
000001c0: a14c 787c 8c60 afbf 4434 5885 d19d aa3f
000001d0: 25af d3d3 fbc6 bbbf 544e 8348 f8a2 a13f
000001e0: 9e33 dfb9 2783 a83f 1790 e001 c604 77bf
000001f0: b1bd 4748 3ced 743f f8aa 786b 9231 6fbf
00000200: 3a06 3e78 f87c 8d3f fe1e 3bf2 d17c 8f3f
00000210: d655 d737 28c7 803f 32f3 4a85 3662 873f
00000220: b0fa 51f1 a993 793f 8600 64e7 951a 9abf
00000230: adeb 59e0 4973 80bf 4180 42ea aaef 823f
00000240: 396a 7595 4819 723f 390a baae 1b39 98bf
00000250: bd45 7c62 e9d5 763f 4ce9 ec7c 5695 703f
00000260: 792a 4bbf d9a5 70bf ad4d 8cfb 5656 6c3f
00000270: a141 8526 5222 603f 8699 2d6c d04f 85bf
00000280: a486 f52d c610 52bf c2bf 8e2c cdae 7bbf
00000290: e056 3f3c db35 5e3f 19ba 6848 50fd 643f
000002a0: c995 7999 ab19 83bf 6609 bcec cbc7 7ebf
000002b0: 1b9a 8e9d 924e 7abf 13f9 4b02 2022 8c3f
000002c0: fb54 f3d1 016f 81bf a9f5 9564 ab2f 8ebf
000002d0: ac92 0fc3 b48a 893f
