weight_LR5_i3000.npy (npy, 1432 bytes, 1 tensors)

array f8 [163, 1]
0	0x3f82132b5a6ad5ef	0.008825625130479657
1	0x3f956b936647033a	0.02091818153144518
2	0xbf8ab046b3d66944	-0.013031532633978167
3	0x3f8768ff6f55f06b	0.011430736146160045
4	0xbfb4d7f500ab9959	-0.08142024294247587
5	0xbf570d58447033a9	-0.0014069902406419288
6	0x3f858e92531a3006	0.010525839959221638
7	0xbfa30b6f01464496	-0.037196606545998254
8	0xbfa640db6e496a21	-0.043463570797673386
9	0x3fbeb9d9a23e3e21	0.12002334795965243
10	0xbf921f56dea45838	-0.017697675074565405
11	0x3f7b6f2174208e4f	0.006697779348573698
12	0xbf4ccc9fa838af7a	-0.0008788852287060355
13	0x3f5099ebf55afb0f	0.001013260296005295
14	0xbf8082ec5e344af1	-0.008062216400991558
15	0xbf6251f63dfea549	-0.002236348096592043
16	0xbf67c99c5378c70c	-0.002903752636279294
17	0x3f858ffd8e868067	0.010528546249418192
18	0x3f96dec76c1ac338	0.02233420941655881
19	0x3f702af2cfc92f6b	0.003947208865223799
20	0xbf67e248debcafd6	-0.0029155181163300443
21	0x3f6ebc87f262164e	0.00375200798140688
22	0xbf811eaf039f0612	-0.008359305665979231
23	0x3f80c79e7a7d9acb	0.008193243134610914
24	0xbf6b7cd5776ef3ab	-0.0033554238575263704
25	0xbf84561d5339f42e	-0.009929875471465701
26	0x3f741b9a6d24bd8d	0.004909136989496144
27	0x3f96df4ac0fbafda	0.022336166409260595
28	0xbf8d93a2158632fb	-0.014441744119517255
29	0x3f8f3582acf28279	0.015238781836445657
30	0xbf93c1fa117e9a14	-0.019294650380880254
31	0x3f92971975673601	0.018154523649903002
32	0x3f864c0184db33ca	0.010887157313300384
33	0xbf99f30365e91c70	-0.025341084571007533
34	0x3f898ee884136232	0.012479607134467139
35	0x3f8251aca1da1640	0.008944843949630799
36	0x3f6e1ac3b3c1e8da	0.003674871664825036
37	0x3f8f64ebd78abf74	0.015329210772818881
38	0x3f780108e41a507a	0.005860361795971264
39	0x3f8dfb82ef0378c1	0.014639876288523703
40	0xbf910c8f63606987	-0.01664947551771825
41	0x3f6a9798d2c31765	0.0032461151914472846
42	0xbf88d14d6a1ecaf5	-0.01211796264747054
43	0x3f83185fb8ab02f3	0.00932383329689077
44	0x3f88966d0b15a7d2	0.012005664730811026
45	0xbf941fe1702a155e	-0.019652864905329685
46	0x3f77581df7174469	0.0056992693439080555
47	0xbf8fd5f3f075db8a	-0.01554480149819228
48	0xbf7578a37c15f183	-0.005242003070972226
49	0xbf938740a1a534fe	-0.01907063471417291
50	0xbf838b3497233ec4	-0.00954285703883729
51	0x3f69ec5bb7812e37	0.0031644622177162923
52	0xbf98fb2caf2498d8	-0.02439565485942627
53	0xbfa33a1cf4524a01	-0.03755274279059862
54	0x3fabe5dbfa257628	0.05448806217712515
55	0xbf419d72c3db9962	-0.0005375681282345052
56	0xbf95edbe1f5cac89	-0.021414728798089065
57	0x3f6436ac62fc7322	0.0024674765517275358
58	0x3f901dbcfe7a1a4e	0.015738442451516392
59	0x3f0b5325e226d657	5.211791382768161e-05
60	0x3f7f008e725826f9	0.007568890030151592
61	0xbf838550bb2155be	-0.009531622610817855
62	0x3f871d9704c410df	0.011286907036727132
63	0x3facea6eb3a12930	0.05647607748740524
64	0xbf6790a7dd4437be	-0.002876594409946669
65	0x3f92601fe7e3404e	0.01794481137113762
66	0xbf90c8345fd78ce2	-0.016388719892245336
67	0xbf8f2b662925ac03	-0.015219495897971674
68	0xbf7fb058f03b2ed1	-0.0077365373760575765
69	0xbfa1cea26cfe8f6e	-0.03477962093827967
70	0xbf928228fcd61d68	-0.01807464640799364
71	0xbf81a44223244006	-0.008614079186855871
72	0x3fbaa09088b2ae52	0.10401252114632456
73	0x3f7fbfb86ed13af0	0.007751198235452547
74	0x3f6753258f4d5f17	0.0028472646321623485
75	0xbf90ab10c71f24e2	-0.01627756324140684
76	0x3fa83ea25d04ee97	0.04735286126603205
77	0xbf83d10c24d08c64	-0.00967607009267208
78	0xbf9cd58ec7cc748a	-0.02815840811227991
79	0x3fa2669da80aa4de	0.03593914676941677
80	0x3f6551abad90a34b	0.002602420147486494
81	0x3fb1a10460135c91	0.06886317582699265
82	0xbfa03357324d1fc2	-0.03164169777897953
83	0x3f94b007a42b684e	0.020202750582804456
84	0x3fc1f6200b151101	0.14032364407660938
85	0xbfc7226a0da461ad	-0.1807377401935474
86	0x3f807f866a3821ae	0.008055734745554623
87	0x3fd7a68838c91b27	0.3695393137499416
88	0xbfde7dc43b5ea50b	-0.4764261798651012
89	0x3fb23114e32bc21c	0.071061425649312
90	0x3fec3fc397114e8b	0.8827836943186907
91	0x3f760ff9d5ca921d	0.005386329573103169
92	0xbf170ebec203f84c	-8.795775693568145e-05
93	0xbf7cd9611059d449	-0.007043246417755952
94	0xbf15a7321907dd5e	-8.260005257187039e-05
95	0xbf7b5d6d87b32b28	-0.006680896617761424
96	0x3f79cdf72670673f	0.006299939565929168
97	0x3f56a2c794f02bde	0.0013815831223407053
98	0xbf7023baaa43c0c3	-0.003940323982746632
99	0xbf8759302a333c15	-0.011400581634374555
100	0xbf8b7054cbf9a5c8	-0.013397848582104369
101	0x3f8be2b3f9747b27	0.013615995455038622
102	0x3f78f58622a7f479	0.006093524900731778
103	0xbf9ba94ac01b2a71	-0.02701298520586665
104	0xbfa170a0a6b5bbfa	-0.03406240496666864
105	0x3f9d26195b8c5cc4	0.028465648853935446
106	0xbfb2d4be545a3246	-0.07355870780356452
107	0x3f9e60c7d68b3ba1	0.029666063756674913
108	0x3fa40c42b60d1c90	0.03915604088120361
109	0xbfa09f3919f9e168	-0.03246477548686039
110	0x3fa4ca6b19d3f2ff	0.04060682955057437
111	0xbf8478b940320d0b	-0.009995887061683214
112	0xbf73b0feda884005	-0.004807467958485749
113	0xbf746c1219405ee5	-0.004985876748854178
114	0x3f79fff788ff414a	0.006347624715957354
115	0xbf7cb9712f1e357d	-0.0070127888919960775
116	0x3f8d5646aa15ffc2	0.01432471472321584
117	0x3f91aa4753618a6e	0.017251123871015066
118	0x3f95956f341d12a8	0.021077859454879416
119	0xbf84e8ff4dcddaca	-0.010210032045262624
120	0x3f843bf8efc0d254	0.009880013291060731
121	0xbf926d6d967188f3	-0.017995559985487252
122	0x3f825393d2a0a648	0.008948473801939319
123	0x3f8706b4fd28ab96	0.0112432613141971
124	0xbf79a3705d924e88	-0.006259383132732339
125	0xbf8c6364429066f7	-0.01386144950997757
126	0xbf7b09073ea1c890	-0.006600406932294814
127	0xbf673b696e3e1d23	-0.002835946959695372
128	0x3f90d04fdf24e7e1	0.0164196472116841
129	0xbf82a68e4f2bba81	-0.009106742659665603
130	0x3f89718137816de2	0.01242352438582989
131	0x3f7eaa8d5452c3cd	0.007486869876786662
132	0x3f6f6ddeb3cf98e9	0.003836569753263953
133	0xbf95d79841dc5ff3	-0.021330241222216228
134	0x3f72015ac315987a	0.004395823039294306
135	0x3f7615da4c29e8e3	0.005391934132257445
136	0xbf86f6e6c62d86d4	-0.011213114664943381
137	0xbf70c7debe7c639f	-0.0040968609753457
138	0x3f830caccdb44454	0.009301519420235639
139	0xbf850ef72337da2f	-0.01028245044925055
140	0xbf7489326074582c	-0.005013653549459856
141	0x3f61850c79099315	0.0021386378869458025
142	0x3f5330fa1e98c08e	0.001171345002500632
143	0xbf858a0ef3fd0750	-0.0105172317704533
144	0xbf4428968d5750ca	-0.0006151900403730478
145	0xbf880cb407710f3d	-0.01174297950468139
146	0xbf858b2732d2a93e	-0.010519319761745135
147	0x3f914ef22dc1e24d	0.016902717631156517
148	0xbf6b3b27d4de8761	-0.003324106021822468
149	0xbf800f3c4c69597a	-0.007841559488195971
150	0x3f70cc7d7243b40b	0.004101266884601005
151	0x3f7354a474fa7a76	0.004719393167447286
152	0xbf84d0749982352e	-0.010163222250663208
153	0xbf7ce9878878aa76	-0.00705864851583248
154	0xbf758327ad9103c0	-0.005252032272495322
155	0x3f8a905d450d9eb3	0.012970665616833221
156	0xbf86859c602e138e	-0.010997029957943185
157	0xbf8843bf42719dd8	-0.01184796735306197
158	0x3f78e0058f4daf19	0.006073018758666193
159	0x3f8ca78c9d9dd7df	0.013991449890209338
160	0xbf81ccdc5204a236	-0.008691521885865954
161	0xbf90a763e380a2c5	-0.016263542900704992
162	0x3f8a8be39cf2c2ed	0.01296212980955277
