weight_LR50_i3000.npy (npy, 1432 bytes, 1 tensors)

array f8 [163, 1]
00000000: 25fd 6cdc 6b13 823f e169 be9c 7570 953f
00000010: 601e 20ce 78a8 8abf 0f86 eafa f347 873f
00000020: 247e e00c f5d5 b4bf e257 8fcf 3676 56bf
00000030: 8247 c772 f26e 853f 1ef3 8924 5209 a3bf
00000040: 180e f3e2 8a3d a6bf f187 7e40 9db8 be3f
00000050: 3a5d cefc ae1d 92bf d5ea d38d 7765 7b3f
00000060: a968 b0d7 1cc0 4cbf 381f decc d2a8 503f
00000070: 1021 f868 cb84 80bf d4f9 fa53 104b 62bf
00000080: cb88 3212 e6c6 67bf ff3b 24c2 f58b 853f
00000090: 5ea6 9262 8fe0 963f ea97 bb07 e52c 703f
000000a0: 3f60 485b 98e5 67bf b8c5 242a 1bbe 6e3f
000000b0: f6b5 1bbe d81c 81bf 595a fb7d bbc6 803f
000000c0: 4e68 4de7 8185 6bbf d63a 912e 3a55 84bf
000000d0: dc31 73ad 8b1d 743f 2234 00fa b4df 963f
000000e0: c5df 62f2 a290 8dbf d56d 64b9 192c 8f3f
000000f0: 9ff2 7bf5 c2bd 93bf 447c 37d8 3a97 923f
00000100: 7549 8600 b645 863f 3671 ef90 d4ed 99bf
00000110: f9f2 9ea6 4d89 893f abc1 f591 2250 823f
00000120: 9a19 58b4 7a29 6e3f 2507 0e4d 5167 8f3f
00000130: 5559 330d 5cfa 773f c7a5 b947 ebfb 8d3f
00000140: dd5c 99d6 fa09 91bf 61ce 61d9 cd8b 6a3f
00000150: 9b0d b6dd 1cd1 88bf d93a 941d 2920 833f
00000160: 9480 db9a be9b 883f b56c 2bc0 cc20 94bf
00000170: 29ea 16e1 125c 773f 6b4d 98c7 5fd9 8fbf
00000180: 3365 c369 9083 75bf f017 9d5f 0782 93bf
00000190: 3341 2318 2d83 83bf 771c bee1 36ee 693f
000001a0: 47f4 c263 abfd 98bf 0026 c2fd 8535 a3bf
000001b0: d277 a574 0ae8 ab3f 22d2 23fc ffb5 41bf
000001c0: b135 dac3 a9eb 95bf 29c9 77b7 6635 643f
000001d0: ce89 2605 5418 903f 37fe 89fa 3ceb 083f
000001e0: b8b1 400f e7fa 7e3f 28b2 06be e98b 83bf
000001f0: a044 acf5 e609 873f de37 aa4b f6e9 ac3f
00000200: c49e 624e e884 67bf f661 84a7 9f5c 923f
00000210: 275a d041 80c7 90bf fb35 6cff 0c2a 8fbf
00000220: 7ba9 e51f 9cb9 7fbf fb7b 45d2 48cd a1bf
00000230: 3ab4 d0e3 d383 92bf 66cc ef8d 44ab 81bf
00000240: e1d5 dcf0 40a2 ba3f c8a0 673d a77f 7f3f
00000250: 8391 f9dc 1950 673f 0574 e881 e386 90bf
00000260: 1605 b7a3 8c2c a83f bab0 13db 34e3 83bf
00000270: 38de 5799 54a7 9cbf b274 ba9e 3a57 a23f
00000280: 664c 4389 36f7 643f f469 1a10 e2a6 b13f
00000290: 4cf3 c5d1 0e2b a0bf 2e3f 86d9 bbc2 943f
000002a0: 28be 0e3f 9ceb c13f e5e5 362f ef18 c7bf
000002b0: 5700 9338 6bc0 803f 7924 f86a e99e d73f
000002c0: 65c1 8edc 8f78 debf b074 9905 7037 b23f
000002d0: a12a 5828 333e ec3f 75d1 e411 820e 763f
000002e0: b964 e87e 753f 16bf c924 7238 a1da 7cbf
000002f0: 0e52 9282 ea43 16bf 1c73 969c f25a 7bbf
00000300: 2dad eb67 50d0 793f d885 12d2 5697 563f
00000310: 6603 59dd 7621 70bf 9602 9d32 765a 87bf
00000320: aa5b 726d 1f6e 8bbf 51e5 41c8 94e8 8b3f
00000330: 899d bb44 98cd 783f 63af 4b15 b4a4 9bbf
00000340: b94d fc47 b16b a1bf 938d 59d6 f812 9d3f
00000350: 0433 e622 a5d1 b2bf 97b0 76db 3b5b 9e3f
00000360: 8426 5538 0a0e a43f 4fed e951 779f a0bf
00000370: 36f6 b3aa 91ca a43f 1630 a81d 2c77 84bf
00000380: d0cb 74e2 74b3 73bf 1576 a98c c572 74bf
00000390: aa3e 8dc2 cc07 7a3f 5881 1735 d3b6 7cbf
000003a0: dfe3 bef9 3d52 8d3f ebbc f820 dfab 913f
000003b0: 4ddf bbfd 6d94 953f 7924 73e8 6ee0 84bf
000003c0: 2b21 1a89 ae35 843f a997 6be1 096e 92bf
000003d0: 7ff6 2617 dc57 823f 694c 8411 5501 873f
000003e0: f649 00b5 2e9c 79bf 11ec 0e51 d363 8cbf
000003f0: a1a9 c910 270d 7bbf 73f2 a673 9a38 67bf
00000400: 392a dd80 01d0 903f d1cd 5a63 aea8 82bf
00000410: bacf 3a7d 7475 893f 5b0e 06b7 c7ac 7e3f
00000420: 11d7 4283 5066 6f3f 63a6 0efa b7d7 95bf
00000430: f183 8d5d dd02 723f 82d0 091c a915 763f
00000440: ead2 c3c0 f4f6 86bf 6442 0277 0bc4 70bf
00000450: de6f d4de 0c0c 833f dfc5 70dd ae11 85bf
00000460: 80fc 63b7 0787 74bf 3bda 00e0 ac8c 613f
00000470: e10d 371b e72a 533f 35d6 a994 328b 85bf
00000480: b4f2 700d 093b 44bf 1cd3 f979 260c 88bf
00000490: acbf 79e4 5087 85bf 34a2 19d2 d54d 913f
000004a0: 5b56 ddbc 5847 6bbf 0912 e65b 400c 80bf
000004b0: ef32 3d37 a6ce 703f 50f0 830f 644f 733f
000004c0: ff0c 98df 13d4 84bf 530e 900e afe2 7cbf
000004d0: 2d95 18b0 2881 75bf 4ebd 0a50 4d8f 8a3f
000004e0: 244f 4c35 ed87 86bf 3c04 cfe5 f242 88bf
000004f0: 409f 1381 1fe7 783f 2c0b c3c9 4ba5 8c3f
00000500: df83 91ad 7dd0 81bf ce91 427a bca4 90bf
00000510: 34c4 70ed 9389 8a3f
0.008826105751380606 0.02093681115329982 -0.013016647139024673 0.011367708296634608 -0.08138972820642515 -0.0013709578763516574 0.01046552098060594 -0.03718048759490088
-0.04343828220728713 0.12000449013297022 -0.017691358738003184 0.0066885633543687 -0.0008773938019459765 0.0010168131443339511 -0.008065785542399811 -0.002233058825225268
-0.0029024594856120515 0.010520858752469662 0.02234100379124581 0.00394906487392708 -0.00291709668296039 0.0037527590331129755 -0.008355801870005824 0.008191551954422826
-0.003359559743711527 -0.009928183122750605 0.004910989394556666 0.0223377492512108 -0.014436028501549356 0.015220833749984767 -0.019278570397534108 0.018155021139929298
0.01087515057659936 -0.025321313234472252 0.012468916556707553 0.008941907958359993 0.0036818882533708576 0.015333781398797772 0.005853995872902769 0.014640653730753862
-0.016639632556999174 0.0032404919139084475 -0.012117600933158104 0.009338685240917343 0.012015809155343761 -0.01965637133512806 0.005703042742818223 -0.015551327017454061
-0.005252422441310234 -0.01905070801810632 -0.009527542399525224 0.0031653472814841504 -0.02440517231365316 -0.03751772616039872 0.054504706133897365 -0.0005404949118018069
-0.021406796053772662 0.0024668699440947473 0.015717804731716183 4.752902834059515e-05 0.007563498093116676 -0.009544206725729046 0.011249355671255679 0.05647248910564405
-0.002870992396385082 0.017931456183847026 -0.016386035935363943 -0.015216924233324205 -0.0077453707329858635 -0.03476932112493355 -0.018081007747401602 -0.008627448636593548
0.10403829460559379 0.007690099030220839 0.0028458123340888166 -0.01613955955882675 0.047214884743434535 -0.00971070569581688 -0.027982065066650658 0.035821754337328385
0.00255928660963316 0.06895268338340782 -0.03157850561817685 0.020274100448261105 0.14000275687202302 -0.18044843488114207 0.008179509796150492 0.3690742058393606
-0.47610851801711923 0.07115841042237281 0.8825927532173702 0.005384929738557855 -8.486895215077923e-05 -0.007044439094110185 -8.493536792492809e-05 -0.006678531362379638
0.006302179418280302 0.0013788555009245276 -0.003938164057729709 -0.011403010768505067 -0.013393636252926406 0.013627207146998417 0.006055445479183582 -0.026995481300147072
-0.03402475360612862 0.02839268501555876 -0.07351142980605735 0.02964490439414699 0.03916961610464134 -0.03246662974285163 0.04060797890450056 -0.009992928175982779
-0.004809815006683274 -0.004992267301159999 0.0063550947605361206 -0.007010293034426539 0.014317020591862515 0.017257200610569717 0.02107402669113805 -0.010193697422794511
0.009868014868758287 -0.017997888930856885 0.008956641632603677 0.011233009907789264 -0.006252462815626183 -0.013862276946261106 -0.006604340171728757 -0.0028346077571924032
0.016418479433278874 -0.009110796362938796 0.012431058952053198 0.007488994728536004 0.0038329670442988147 -0.02133071387985409 0.004397263249161108 0.0053917508927164865
-0.01121321881553557 -0.004093212876015249 0.009300327825762563 -0.010287634022549006 -0.0050115872784309845 0.0021422745194528393 0.001169896783594797 -0.010519404565665894
-0.0006173891259844883 -0.011741924855621692 -0.010512001011392012 0.016898480366224614 -0.003329919162676371 -0.007835867695356507 0.004103326111203328 0.004714384900804516
-0.010170130978627954 -0.0070521200332254895 -0.005250128685962791 0.012968639378725524 -0.011001446904209518 -0.011846444738582311 0.006079791129401546 0.013987152190002648
-0.008698446139705438 -0.016253418886337738 0.012957721408470936
