weight_LR1_i3000.npy (npy, 856 bytes, 1 tensors)

array f8 [91, 1]
0	0xbfaf5569de00064f	-0.06119852862321961
1	0xbf99faef0110120f	-0.02537129825579326
2	0xbf79fe64b2317ffa	-0.006346124023451688
3	0xbf7de6014f70ecd8	-0.007299428099084092
4	0x3f6940e87a0ab833	0.003082708412271118
5	0x3f97d97cef36c8f4	0.02329058847471628
6	0x3f7b74da4ed6a501	0.006703236356238707
7	0x3f7ceae509d993af	0.007059950524852462
8	0x3f755762a9cdd25c	0.005210290339949877
9	0x3f7a8c3373655d87	0.0064813623233343
10	0x3f77ce31c255d914	0.005811876651355758
11	0xbf6922c43cbca3b2	-0.0030683357962470676
12	0xbf64e6fb39af32a6	-0.002551546740028182
13	0xbf61e7d48e114773	-0.0021857406104936416
14	0xbf46bcc15c07f73e	-0.0006938881052176227
15	0xbf50290e5f10b323	-0.0009863510461045131
16	0x3f7b2a75c10ad0d3	0.006632289864388424
17	0x3f6b7d6753e7c06e	0.0033556955452170223
18	0x3f4ed17cd99cc3a1	0.0009405002231003165
19	0x3f6e7d8064ec246c	0.0037219531726618207
20	0x3f752cd58279c284	0.005169710180425672
21	0x3f76567f2e8fd3af	0.005453583530642555
22	0x3f64490e15333c15	0.002476241593832205
23	0x3f669e32e67a3e7f	0.0027609819551981936
24	0x3f667418dd60d5e5	0.002740906299574008
25	0x3f6ab40a7695a510	0.0032596783027442136
26	0xbf7a3762e118c84b	-0.006400476691441235
27	0xbf5a8000fab0c722	-0.0016174325526318663
28	0xbf5e13e3c7f14ff7	-0.001835796778114405
29	0xbf80c605ff8f8cb9	-0.008190199719996337
30	0xbf7d106ee82c17cf	-0.007095750074546061
31	0xbf6f1378c6eeea8a	-0.0037934645583537806
32	0xbf4bac3b36be6d5a	-0.0008445061807721796
33	0x3f2d42582ee605d0	0.0002232296605591392
34	0x3f58eb63299e26d1	0.001520964468428355
35	0x3f67c405ccdb7d6b	0.0029010880742671905
36	0x3f3a414b1e755a1c	0.0004006203075354335
37	0xbf57fde5bd88c69a	-0.0014643424566539776
38	0x3f56846e6d482e75	0.0013743475329900643
39	0xbf5317f2a43bdcf3	-0.0011653775736116228
40	0x3f399e98b074f0b5	0.0003909228111813699
41	0x3f7fe6d9b1e0f438	0.0077885154442443524
42	0x3f79f1e7944f6e59	0.006334213835511437
43	0x3f686af009b088ae	0.0029806793441063606
44	0x3f799ec411ced0e1	0.00625492658302937
45	0x3f9023767e887077	0.015760280106505733
46	0x3f47ab5104706c91	0.0007223268120272343
47	0x3f7b702cacaf9295	0.006698774824120198
48	0xbf8127d51b6109c8	-0.008376755617182222
49	0xbf5f6efa87fd0281	-0.00191854921281745
50	0x3f9abe466a3a1258	0.026116466744968342
51	0x3f524271dc8585fe	0.001114474480424454
52	0x3f476783e06ddfb8	0.0007142442635616952
53	0x3f4d28f8ae8d75dc	0.0008898939387155763
54	0x3f0b023a0dded4b8	5.151500384618354e-05
55	0xbf59fba3c05608cf	-0.001585874474898708
56	0xbf89ae5bda9c9783	-0.012539594277381166
57	0xbf5c4cc44c8857aa	-0.0017272870046602753
58	0xbf803b2f493385e1	-0.0079253858770611
59	0x3f760b8295ed435b	0.005382070636941484
60	0x3f7017c47dcf96d9	0.0039289164969653284
61	0x3f5b5dbf93295dc3	0.0016703005645889314
62	0x3f3047ed92ecc541	0.00024842786926900304
63	0x3f57dbd2ef35f05b	0.001456218710557364
64	0xbf4291e7111c63bf	-0.0005667093521167717
65	0x3f617ccf832107f7	0.0021347096417523265
66	0xbf823c8d09d5545c	-0.00890455423602015
67	0xbf7c683a9ac11d7e	-0.006935337947715834
68	0xbf7196cf2f762038	-0.004294213598207412
69	0xbf76632d6b975db6	-0.005465676711046743
70	0xbf60c43d1a413c09	-0.00204669889539089
71	0xbf53e95d0889f6fd	-0.0012153061417445315
72	0xbf5904f73387ebfa	-0.0015270628047108202
73	0xbf52b29ea8faa6ab	-0.0011412190832892726
74	0xbf4bcf97938558b1	-0.000848721515505321
75	0x3f2c0ed49026fc16	0.00021406502498952433
76	0x3f2d44a2613785ca	0.00022329790281987025
77	0xbf43924756953ff3	-0.0005972717600943852
78	0xbf34cd0534781dd9	-0.0003173959453026377
79	0xbf46205ec7060720	-0.0006752455501983536
80	0xbf61ece00eaee9ba	-0.002188146221184098
81	0xbf6e45998008ca94	-0.003695297055196287
82	0xbf74a82008cb34b3	-0.005043149122412038
83	0xbf73158f411c363b	-0.0046592326996353585
84	0xbf7f0f17a4c46c7d	-0.007582752569102455
85	0xbf82e60aad666df0	-0.009227832237960393
86	0xbf5bf2ea2bc058d8	-0.0017058646035415428
87	0x3f6e11b597197a49	0.003670553844855183
88	0x3f62ef44e40bcd67	0.0023113580249344737
89	0x3f66c6cdbb505eda	0.0027803438374681523
90	0x3f731653f1df6fa4	0.0046599654287681515
